Ex_1/Ex1_model.pth (torch, 2127 bytes, 4 tensors)

l1.weight f4 [20, 2]
000000 a7 ac a5 3e 5d df 8b 3e b6 d2 a0 3e d1 14 ed 3e
       0.32358286 0.2731885 0.3141076 0.46304944
000010 3a d4 27 3f e6 bb 2f 3f 4a 65 06 bf 20 f5 6a 3d
       0.6555821 0.68646085 -0.52498305 0.057362676
000020 06 8d 00 bf 38 77 af bd 28 0b 49 3e 36 5d 92 be
       -0.50215185 -0.08567661 0.19633162 -0.2858674
000030 e1 44 b3 3e e5 8b e3 3e f3 67 b4 3e 84 70 a3 3d
       0.35013488 0.4444267 0.35235557 0.07980445
000040 e9 ea c9 3d 76 03 24 3e 74 90 45 be dd 96 10 bf
       0.09859259 0.16016945 -0.19293386 -0.564802
000050 2d fe dd 3e 67 09 e7 3e 39 ac d5 be 5a 8b 55 be
       0.43357983 0.4512436 -0.41732958 -0.2085394
000060 64 5f 64 3e 3f 58 2e bf b6 19 df 3e 83 a6 2a 3f
       0.22302014 -0.681034 0.43574303 0.66660327
000070 8c d8 6d be ce df 20 3f 54 f6 46 3e fa 99 b6 3e
       -0.23227137 0.628415 0.19429904 0.3566435
000080 6c 10 cd 3e 29 c9 af 3e 2f 0d 84 be 5a 0e 2f bf
       0.4005159 0.3433316 -0.25791308 -0.68381274
000090 3c 01 6a 3e 20 ab fb bc a0 30 07 bf 6b aa de be
       0.22852033 -0.030721247 -0.5280857 -0.43489394

l1.bias f4 [20]
000000 a3 5c 0c 3e b1 e4 bb 3e ef c8 2e bf ff 80 2c bf
       0.13707213 0.36697915 -0.6827535 -0.6738433
000010 f8 e1 0f bf 4d 55 b7 3d ef 59 2e 3f 66 44 22 3f
       -0.56204176 0.08951817 0.6810598 0.6338562
000020 5a d9 68 be 36 f6 a1 be 74 4d 95 3e 50 ad ba be
       -0.22739163 -0.31633157 0.29160655 -0.36460352
000030 48 3a 7b be 21 a0 4c be da ec 51 be 23 a3 8d be
       -0.24533951 -0.1998296 -0.20500508 -0.27663526
000040 d6 ea ef 38 f9 25 dd be 98 01 6a be dc 8a dc 3c
       0.0001144015 -0.43193033 -0.2285217 0.026921682

l3.weight f4 [2, 20]
000000 33 16 a0 bd 3e d9 3e be c3 e8 f1 3d 38 8f 68 bd
       -0.07816734 -0.18637559 0.11811974 -0.05677721
000010 d6 33 1b 3e 22 f5 3a 3e b6 54 02 3e 3c c6 e1 3d
       0.15156493 0.18257573 0.12727627 0.11024138
000020 84 41 6e 3d 8a 28 1b 3e f7 63 28 be 62 96 54 3e
       0.05816795 0.15152183 -0.16444384 0.20760491
000030 ce 63 96 bd 1e f9 4b be 49 8c 43 3e 1b eb 64 be
       -0.07343255 -0.1991925 0.19096483 -0.2235531
000040 f2 b7 f9 3d 70 85 f8 bc b4 e7 51 be ff 00 97 bc
       0.12193288 -0.030337065 -0.20498544 -0.018433092
000050 1d 21 6a 3d 53 bc a6 3d c9 81 7c 3e 38 a1 ba bc
       0.057160486 0.08141389 0.24658884 -0.022781953
000060 81 39 4f be d4 3f 35 be 55 e7 ae 3d 03 cc 53 be
       -0.2023678 -0.1770013 0.08540217 -0.20683293
000070 d8 45 3f be c9 a6 e7 bd b7 9e d0 3d bc 8c 3c be
       -0.18678987 -0.113111086 0.101865225 -0.18413061
000080 80 27 2b 3e b6 7a 50 be 70 36 02 3e cc 1d 4f be
       0.16714287 -0.2035931 0.12716079 -0.2022621
000090 0a 05 74 bc d0 c8 aa 3d d2 99 61 3e 28 ae d5 3d
       -0.0148937795 0.08339083 0.22031334 0.10433608

l3.bias f4 [2]
000000 c3 49 79 3d 24 31 be 3d
       0.06086136 0.092867166
