Ex_1/Ex1_model.pth (torch, 2127 bytes, 4 tensors)

l1.weight f4 [20, 2]
0	0x3d813f28	0.06310874
1	0xbe761da0	-0.24034739
2	0x3f0f0c58	0.5587821
3	0xbeb90742	-0.3613835
4	0xbf306680	-0.689064
5	0xbe87bf59	-0.26513174
6	0xbf30f518	-0.69123983
7	0xbe05362c	-0.13008946
8	0xbe9c25d8	-0.30497622
9	0x3e2edfb5	0.17077525
10	0xbed6970d	-0.41912118
11	0x3ef96d0e	0.48716015
12	0xbe544c6c	-0.20732278
13	0xbed17694	-0.4091078
14	0xbed91d8b	-0.42405352
15	0xbf306a4c	-0.68912196
16	0x3e6b047c	0.2295093
17	0xbf02a97c	-0.5103986
18	0xbdfe9f68	-0.12432748
19	0x3ed48046	0.41504115
20	0xbe5ac4fa	-0.21364203
21	0x3e01f684	0.12691694
22	0xbf3214ae	-0.69562805
23	0xbebee69a	-0.3728531
24	0xbec53f42	-0.38524824
25	0x3e133e3e	0.14379212
26	0x3f19eabd	0.6012381
27	0xbee726bd	-0.45146742
28	0xbef0674a	-0.46953803
29	0x3f09129a	0.5354401
30	0xbf1a4274	-0.6025765
31	0x3e6043e4	0.21900898
32	0xbe9b2718	-0.30303264
33	0xbf2ae946	-0.66762197
34	0xbec81ea3	-0.39085874
35	0xbeaa615a	-0.33277398
36	0x3d46c3c1	0.04852653
37	0xbf0a8169	-0.54103714
38	0x3ef8e6a2	0.4861346
39	0x3ee0f206	0.4393465

l1.bias f4 [20]
0	0xbef90e10	-0.4864354
1	0xbeb723b6	-0.35769433
2	0xbeddcb40	-0.4331913
3	0xbe83a2f9	-0.25710276
4	0x3eb268db	0.34845623
5	0x3f122ddd	0.5710123
6	0xbe9043c4	-0.281767
7	0x3e9cc4c3	0.30618867
8	0x3ec2b008	0.38024926
9	0xbe8d1279	-0.27553156
10	0xbf12c8b6	-0.5733751
11	0xbe109530	-0.1411941
12	0xbd61ba84	-0.055109516
13	0xbefc08b4	-0.4922539
14	0xbee51c40	-0.44748116
15	0xbe1bafc0	-0.15203762
16	0xbed8a454	-0.42312872
17	0x3ba2b76a	0.0049657123
18	0xbd46c4df	-0.048527595
19	0x3e756647	0.23964797

l3.weight f4 [2, 20]
0	0x3de537f8	0.11192316
1	0x3e80386e	0.25043052
2	0x3da60bd4	0.08107725
3	0xbe4c2a12	-0.19937924
4	0xbdb7157f	-0.08939647
5	0x3db1c5ba	0.086802915
6	0x3e1e8b58	0.15482843
7	0xbe6402d2	-0.22266701
8	0x3e1b0da4	0.15141922
9	0x3e2b160e	0.16707632
10	0x3e628bce	0.22123644
11	0x3df9fbcc	0.122062296
12	0xbdfc48b3	-0.12318554
13	0xbdc302c6	-0.09522013
14	0xbe497a5b	-0.19675581
15	0x3c0416e6	0.0080621
16	0x3da92c4c	0.08260402
17	0x3dc8f8db	0.098130904
18	0x3d77cbc0	0.060497046
19	0xbdfef9b2	-0.12449969
20	0xbccb9dc0	-0.024855494
21	0x3d9a9f9d	0.07549975
22	0xbd1cb138	-0.038254946
23	0x3d1ceba0	0.038310647
24	0xbe587c8e	-0.21141264
25	0xbe4c7c30	-0.19969249
26	0xbdfc6874	-0.1232461
27	0x3cb1485a	0.021640945
28	0xbd8ddc2b	-0.06926759
29	0x3e219de4	0.15782887
30	0xbd4a7158	-0.0494245
31	0xbc04e4e0	-0.008111209
32	0x3e0ad9d2	0.13559654
33	0x3d33e5b7	0.043920245
34	0x3d8a4a9a	0.0675251
35	0x3dd43cec	0.103631824
36	0x3e151324	0.14558083
37	0x3db280b6	0.08715956
38	0x3debd2eb	0.11514839
39	0x3d6e70e2	0.058213122

l3.bias f4 [2]
0	0x3d0b27c6	0.033973478
1	0x3dcf312f	0.10116803
