Ex_3/Ex3_model.pth (torch, 2063 bytes, 4 tensors)

l1.weight f4 [15, 2]
000000 74 10 24 bf 36 da bc 3e 8e e0 ca be 72 7a cb 3e
       -0.64087605 0.36885232 -0.39624447 0.39741856
000010 c4 7f 15 3e 55 09 dd 3d 58 e1 01 3f 6f bb 1a bf
       0.1459952 0.107927956 0.5073447 -0.6044225
000020 d1 67 a6 3e 9e df 53 bd 3b 3c 14 3f 0b 95 49 bd
       0.3250108 -0.05172693 0.57904404 -0.049214404
000030 cc e5 24 be 0f 4c 31 bf 85 ef 18 bf d3 9b 01 3f
       -0.16103286 -0.6925668 -0.5974048 0.50628394
000040 03 15 48 be 05 5d ae 3e d3 78 35 3f 75 00 9d 3e
       -0.19539265 0.34055343 0.7088749 0.3066441
000050 4b 78 b6 3e 95 e9 f3 be 26 32 d2 3e ef d9 31 3f
       0.3563865 -0.47639146 0.41053885 0.69473165
000060 ff ad f7 be fb f8 45 bf 1c a2 b6 bb 02 2b a2 3d
       -0.48374936 -0.7733304 -0.005573524 0.07918359
000070 11 36 83 3e bb ab ee 3e
       0.25627187 0.46615395

l1.bias f4 [15]
000000 6f 5a 10 bf 41 0c f7 bd f9 8c 28 bf 4a aa ce bc
       -0.5638799 -0.12062884 -0.6584011 -0.025227685
000010 34 d6 f2 be 49 65 07 3d 11 3f fb be 08 7e 14 be
       -0.4742905 0.033055577 -0.49071553 -0.14501202
000020 95 84 98 bb a9 ce 3a 3f 58 fb bd be 21 91 2c bf
       -0.004654477 0.7297159 -0.37105823 -0.6740895
000030 41 27 84 bd 32 ed 69 be f7 8e ac be
       -0.064527996 -0.22844389 -0.33702824

l3.weight f4 [2, 15]
000000 af dc 39 3d 31 7c 04 bc 28 33 c4 bd 25 55 ae bc
       0.045376476 -0.00808625 -0.0958007 -0.021280834
000010 c6 f7 32 3e 54 2e 40 3e b3 26 65 be 9f b6 29 be
       0.1747733 0.18767673 -0.22378044 -0.1657357
000020 5a cf 82 bc 30 24 fc 3d 0a 76 0e 3e 0f c2 21 3e
       -0.015968014 0.1231159 0.13912216 0.15796684
000030 1b d6 eb be 6e d0 f7 bd 4a 83 aa 3d 6b 69 69 3d
       -0.46061787 -0.12100302 0.08325823 0.0569853
000040 00 f1 20 3e a8 43 a2 3d 60 3d b7 b7 a8 bd 60 3e
       0.15716934 0.07923061 -2.184388e-05 0.21947348
000050 fc c7 ca ba a2 aa 05 3d 95 6a d7 3d 1d 3d 54 bd
       -0.0015470977 0.03263343 0.10518376 -0.051816095
000060 f4 f6 1a bf 91 92 88 3e a0 b1 16 be 6d 02 b2 3e
       -0.6053307 0.2667432 -0.14716196 0.34767476
000070 1b 12 74 be bb 61 c9 3b
       -0.23835032 0.0061456836

l3.bias f4 [2]
000000 ea 7e a4 3d 7c e1 66 bd
       0.080320194 -0.056367382
