Ex_3/Ex3_model.pth (torch, 2127 bytes, 4 tensors)

l1.weight f4 [15, 2]
00000000: b24c 5a3e 9a78 ab3e dcba 0a3f 5e10 033f
00000010: 358b 07bf 8877 a9be 5087 28bf 37d8 3fbe
00000020: 5e0e 3b3d f15b 8ebe 8c66 983e 1076 cb3b
00000030: 8d80 0bbf 6586 33bf 9ef2 82bd 5606 2abf
00000040: e328 c93e 58ee e1be da76 243f cbff 183f
00000050: dfcd 41be 5955 1fbe cbcb 2dbf 469c 71be
00000060: 392d 8bbe 53cf a33e 6f66 06bf ee88 ebbe
00000070: f282 f6be 256c 91be
0.2131832 0.3349045 0.54191375 0.5119685 -0.5294679 -0.33099008 -0.6583147 -0.18734823
0.045668 -0.2780452 0.29765737 0.0062091425 -0.5449303 -0.70126945 -0.06393932 -0.6641592
0.39289007 -0.44127154 0.64243853 0.5976531 -0.1892619 -0.15559901 -0.6788909 -0.2359477
-0.2718294 0.31994113 -0.5250005 -0.46002907 -0.48146778 -0.2840282

l1.bias f4 [15]
00000000: 20f8 81bb a946 313f 5323 1bbf a0e4 0fbf
00000010: 07cd 073f 4e53 9d3e 6b2c a13a e720 80be
00000020: 5cad e8be 2778 323e f00e 383d e489 efbe
00000030: e158 eebe da95 20bf 4358 a63e
-0.0039663464 0.69248444 -0.60600775 -0.5620823 0.5304722 0.3072762 0.0012296563 -0.25025102
-0.45444763 0.17428647 0.04493612 -0.4678489 -0.46552184 -0.62728655 0.32489213

l3.weight f4 [2, 15]
00000000: a5c0 833e 0cbb 063e 8bf5 92be dfc2 4fbd
00000010: c6d6 bb3d 7fd8 1d3e 85c6 74be 037c abbe
00000020: 1af2 0a3e 8bf0 5e3e 6509 98bd 6eb5 81be
00000030: c57a 39be 7db6 a8be 06e7 36be 929f 99be
00000040: e020 d1be f878 19be 6dc7 46bd 7c85 923b
00000050: 748c c5bc b9f8 d13d ad40 2e3e 5278 a1bd
00000060: bba0 7ebd 9fa7 d63d f83d 843e 61c2 4d3e
00000070: f456 a43d e57b a33e
0.25732914 0.1315729 -0.2870296 -0.050722953 0.09171824 0.15414618 -0.23903854 -0.3349305
0.13568917 0.21771447 -0.07423667 -0.25333732 -0.18113239 -0.32951728 -0.17861566 -0.30004555
-0.40845394 -0.14987552 -0.04853003 0.004471479 -0.024114825 0.10252518 0.1701686 -0.078842774
-0.062165003 0.1048119 0.25828528 0.20093681 0.080243975 0.31930462

l3.bias f4 [2]
00000000: 28f4 d53d 6cb5 40be
0.1044696 -0.18819207
