Ex_2/Ex2_model.pth (torch, 1743 bytes, 3 tensors)

l1.weight f4 [10, 1]
0	0xbf44f4cb	-0.76936024
1	0xbf1476c9	-0.5799375
2	0x3f250670	0.6446295
3	0xbe57ae33	-0.21062545
4	0xbdfa5b04	-0.12224391
5	0x3f107297	0.5642485
6	0xbe11886b	-0.14212196
7	0x3f82163f	1.0163039
8	0x3e494ba4	0.19657761
9	0x3f4268da	0.7594124

l1.bias f4 [10]
0	0xbe9316e3	-0.287284
1	0x3ebd13c3	0.3692914
2	0x3f1c79f8	0.6112361
3	0x3f2d457c	0.6768415
4	0x3e62cc58	0.22148263
5	0xbec541de	-0.38526815
6	0xbe14b471	-0.14521958
7	0xbf97ee7d	-1.1869656
8	0x3e5c0bf1	0.2148893
9	0x3f6ba829	0.9205347

l3.weight f4 [1, 10]
0	0x3eecc36d	0.46242848
1	0xbe4851c8	-0.19562447
2	0x3ec591e0	0.38587856
3	0xbcf7aa46	-0.03023256
4	0xbea77a01	-0.3271027
5	0xbe6fe2ba	-0.23426333
6	0x3b879663	0.0041378005
7	0xbf7bc5c9	-0.9834867
8	0x3ea87f39	0.32909563
9	0x3f23f06e	0.6403874
