Ex_2/Ex2_model.pth (torch, 1743 bytes, 3 tensors)

l1.weight f4 [10, 1]
000000 67 82 0c 3f 3e f1 98 3e 73 83 79 bf 2d e2 4a bf
       0.5488648 0.29871553 -0.974662 -0.79251367
000010 1c 14 9c 3e ef f9 13 3f 2d 26 5d bf c5 08 bb be
       0.30484092 0.57803243 -0.86386377 -0.36530128
000020 8f 50 23 bf c1 3f 0d bf
       -0.637948 -0.55175406

l1.bias f4 [10]
000000 07 58 17 3f 40 ff 0e bf 00 54 3a bf d4 35 68 3f
       0.59118694 -0.5585823 -0.72784424 0.90707135
000010 0a 65 3c bf f0 15 26 bf 85 93 30 bf c8 d9 00 bf
       -0.73591673 -0.64877224 -0.68975097 -0.5033231
000020 99 8c 5f 3f b8 88 6f bf
       0.8732391 -0.9356799

l3.weight f4 [1, 10]
000000 30 59 03 3f 07 ee 7c be 6a 0b 30 bd ea 88 37 bc
       0.51307964 -0.24700175 -0.042979635 -0.011202076
000010 f6 91 62 3d c9 6b 6c be 8b dd ff 3d 0a 68 39 3d
       0.05531498 -0.23087992 0.12493428 0.045265235
000020 a4 b4 b9 be 49 df 87 3e
       -0.3627063 0.2653754
